ModelPack/17_18_models/NN/simple_nn_1718.pth (torch, 9239 bytes, 5 tensors)

fc1.weight f4 [30, 38]
000000 54 cf 76 bb 0d 08 a5 ba 67 74 34 b9 67 06 29 ba
       -0.0037660198 -0.00125909 -0.00017209501 -0.00064477924
000010 60 93 5d b9 ae ab bb b9 7f f0 16 bc d2 64 e8 ba
       -0.00021131104 -0.0003579533 -0.009212612 -0.0017730242
000020 25 5a 29 ba 49 a3 f5 39 6b d7 a2 3b 06 e3 4e bb
       -0.0006460271 0.00046851698 0.0049695275 -0.0031568422
000030 13 fd 21 3b 4e b4 07 3c a3 f9 2b b8 13 74 13 ba
       0.0024717494 0.008282734 -4.100207e-05 -0.00056249014
000040 ab d1 91 ba c3 44 c6 3a 6e 2e 8e ba 71 5e a7 ba
       -0.0011125108 0.0015126694 -0.0010847577 -0.0012769235
000050 25 45 c3 ba 04 cc 6a 3b d1 c1 c8 3a f7 3f 14 bb
       -0.0014897926 0.003582717 0.0015316551 -0.0022621134
000060 84 75 3a bb 9c 16 6f 3b 22 22 9d 3b 7d 5c 78 3a
       -0.0028451392 0.0036481982 0.0047953287 0.0009474231
000070 65 66 22 3a eb be 01 ba 9c 2c 08 ba 1e 36 3e bb
       0.00061950675 -0.00049494085 -0.00051946356 -0.0029023956
000080 e6 ca a2 3b 46 b3 2c 3b 56 6d ee 3b bd 2a c5 3b
       0.004968035 0.0026351972 0.0072762175 0.0060170577
000090 b8 96 b3 3a cd b6 84 3b 28 cf 27 3c d2 d2 18 3b
       0.0013701534 0.004050112 0.010242261 0.0023319018
0000a0 0a 75 c4 3b bf 7e 45 bb f5 2e c9 3b e2 58 f6 ba
       0.0059953975 -0.003013536 0.006139631 -0.00187948
0000b0 9e 5d 97 bb 86 9c 4f 3c ef 63 ba 3b 7d 78 43 3b
       -0.0046193143 0.012671595 0.0056881825 0.0029826455
0000c0 68 c7 0d 3d 31 a3 0d 3c e6 7e bd 3c 1f 6b 11 3d
       0.034613997 0.008644865 0.023131799 0.03550255
0000d0 b3 c2 72 3a 8a af c9 3b e3 38 ab 3b 3f 49 bf 3c
       0.000926058 0.006154959 0.0052252873 0.023350356
0000e0 35 be 5b bb 4d 76 68 3b 1c 02 6a 3c 54 91 d8 3c
       -0.003353012 0.0035470903 0.0142827295 0.026436485
0000f0 f0 2f ca 3c 8d c2 04 3c 1d c0 52 bc 9a b4 90 bb
       0.024681062 0.008103025 -0.012863186 -0.0044160606
000100 28 40 0d 3c a9 c1 14 bb 3c 2b 0e bc d1 dd bb 3b
       0.008621253 -0.0022698438 -0.0086773 0.0057332297
000110 7f 98 7e 3b 8d 43 85 3c c6 db 14 3d 4e c9 b7 3c
       0.003884822 0.016267562 0.036342405 0.022434857
000120 d4 f4 10 3d fe 1a 3a 3d 66 ec 00 bc 66 cd dc 3c
       0.035389736 0.045435898 -0.007868862 0.02695341
000130 fd 8b 2c 3c 31 da 71 3c e9 9a 6a 3a 7e cf b3 bb
       0.010531423 0.014761494 0.0008949475 -0.0054873815
000140 f6 0e c2 3a 99 f1 5d bb 4f 11 82 ba 1c f6 21 3c
       0.0014805484 -0.0033865927 -0.0009923371 0.009885337
000150 92 fa fc 3c 69 b9 9d 3c 54 cd 78 3d 6f 0f e0 ba
       0.0308812 0.01925345 0.06074269 -0.0017094443
000160 58 4f 2f 3d c2 96 86 3d 1e 48 3c 3a f3 fc c0 3b
       0.042800277 0.065717235 0.0007182377 0.005889529
000170 5f ba 24 3c 6f c9 4e 3d 96 4b a5 bb 24 ea 8b 3c
       0.0100542 0.05048507 -0.005044411 0.01707942
000180 cc 46 ad 3c 9c d3 64 3d ab 68 5e 3d b8 c0 07 3c
       0.021151923 0.05586587 0.054299038 0.008285694
000190 f7 df fc bb ee 56 31 3d 74 99 74 3d 42 b6 ca 3c
       -0.0077171284 0.043295793 0.059716657 0.02474511
0001a0 b5 85 13 3c 0b b8 be 3b c9 a1 ed 3a 5e 44 24 3c
       0.009004046 0.0058202795 0.0018129881 0.010026066
0001b0 50 53 84 3d 7d ed 37 3d c3 82 86 3d 42 43 a3 3d
       0.06461203 0.04490422 0.065679096 0.07971813
0001c0 84 ff a1 bc 12 f5 57 3d c8 55 82 3c 11 23 69 3c
       -0.01977516 0.05272395 0.015910044 0.014229552
0001d0 f7 4d 4b bb db 84 cb 3a 85 8b 75 bb e6 a6 df 3a
       -0.0031021812 0.0015527265 -0.0037467193 0.0017063289
0001e0 17 89 46 bd 85 ff 45 3b 2a f0 b8 bb 31 df a6 bc
       -0.048470583 0.0030212116 -0.005643864 -0.020370098
0001f0 9c c4 ae bc da ed a7 3c 18 ba ed 3b da 6f 9b bc
       -0.021333985 0.020499159 0.00725485 -0.018974233
000200 67 32 31 3b 77 37 56 ba f0 e2 c3 bc e8 71 02 b9
       0.0027038099 -0.0008171717 -0.023911923 -0.000124402
000210 47 b4 e4 bc b8 a3 24 3c ec 49 ad bc 93 db f3 3b
       -0.027917994 0.010048799 -0.021153413 0.007441947
000220 30 dc d1 bb 5b 97 cf bc 29 b2 a1 3c d4 ca 8e bc
       -0.006404422 -0.025340727 0.019738274 -0.0174307
000230 90 b5 0f bb 40 a8 b3 3b 54 29 74 bc ab c3 f4 3a
       -0.0021928288 0.0054827034 -0.0149024315 0.0018674036
000240 8a ae 75 bc a3 f9 1a 3c 97 f3 a8 bc 57 d7 04 3c
       -0.014995227 0.009458932 -0.020623965 0.008107982
000250 23 fe 51 bc df 65 36 bc 79 4b 26 bd e1 b3 c8 3b
       -0.012816939 -0.011132686 -0.04059932 0.006124959
000260 76 30 4d 3c 0d 66 9a 3c 2a d2 53 3c 43 c2 db bb
       0.012523761 0.01884749 0.012928525 -0.0067065074
000270 35 e9 5e 3c 53 1c 88 bb f2 a9 c6 ba d1 a9 48 3c
       0.013605406 -0.004153767 -0.0015156849 0.012247519
000280 c2 bd 17 3d 02 b2 ba 3c 00 89 95 3d 5c 16 1a bb
       0.0370462 0.022789959 0.07301521 -0.0023511862
000290 11 2d 53 3d 90 97 a2 3d 19 77 5c 3a 30 b1 e6 3b
       0.05155665 0.079390645 0.0008410081 0.0070401654
0002a0 65 ec 43 3c af 69 78 3d be d2 ca bb 19 9a b1 3c
       0.011958216 0.060647663 -0.006189673 0.021679925
0002b0 05 60 cf 3c a5 6a 89 3d c0 3e 85 3d ac 6c 22 3c
       0.02531434 0.06709794 0.06506109 0.009913605
0002c0 09 da 1c bc 72 62 54 3d 9c af 92 3d 55 7c f2 3c
       -0.009573468 0.051851697 0.07162401 0.029600302
0002d0 b6 62 31 3c cc 2f e4 3b 14 05 0c 3b 37 b1 4e 3c
       0.010826757 0.0069637056 0.0021365331 0.0126154935
0002e0 92 7c 9f 3d 5a c8 5d 3d 5a 5d a1 3d 9f be c3 3d
       0.07787432 0.05414615 0.078791335 0.095578425
0002f0 4b 50 c1 bc 7d 02 82 3d ea 2a ca 3e c5 76 44 3e
       -0.023597857 0.06348131 0.39485866 0.19185932
000300 9b ab 03 bc 02 3b e2 3b 30 72 2a bc 22 33 47 3c
       -0.008036519 0.006904007 -0.010403201 0.012158187
000310 7d 13 a8 3e 36 09 b9 bc 41 b3 9f 3d 9c 05 3b 3e
       0.32827368 -0.0225874 0.07797862 0.18263859
000320 4b e3 14 3d 86 e6 e1 ba 0e aa c4 3a 09 71 88 3c
       0.036349576 -0.0017234839 0.0015004294 0.016655462
000330 1c 01 1e 3b 72 23 25 3c 9f 51 e9 3d c9 d2 48 bc
       0.0024109548 0.010079252 0.11392521 -0.012257286
000340 b2 1a 26 3e be bd 36 3e 2a 31 45 3d 6d f3 ea bd
       0.16221121 0.17845818 0.04814259 -0.11472211
000350 21 53 c3 bc 7d 6f 8e 3d 6a b0 4a 3e 37 b6 ca bd
       -0.02384335 0.069548585 0.19793859 -0.09898036
000360 49 4b 85 bd f2 ae be 3c 27 65 9b bd 12 74 42 3b
       -0.065085 0.02327678 -0.07587653 0.0029671234
000370 d9 72 2d 3d db 10 f6 bc 2d 3d 58 3c 80 f1 4c 3d
       0.042345855 -0.030037334 0.013198179 0.050035
000380 cd 5a f4 bb 0e 59 e9 bd 5a 5c aa 3d 6c 89 e4 3c
       -0.0074571134 -0.11393939 0.08318396 0.02789756
000390 09 d5 c4 3d 4f 76 d8 3c f6 3a 06 bc 70 c5 a2 3b
       0.09610946 0.026423601 -0.008192768 0.004967384
0003a0 3c be 20 bc e3 23 cd 3b 83 8f b5 3d e8 a3 34 bc
       -0.00981098 0.0062603815 0.08865263 -0.011025406
0003b0 b7 3e 12 3d d6 a0 35 3c 49 3a be 3a f5 65 17 3d
       0.03570434 0.01108571 0.001451322 0.03696247
0003c0 ff 9c 7d 3d fc 55 a9 bc 46 74 60 3b b0 04 5e bc
       0.0619173 -0.020670883 0.0034248992 -0.013550922
0003d0 02 15 ab bd 6a 36 4f bd e3 7f 99 bd 11 36 9f 3c
       -0.08353616 -0.050589003 -0.074950956 0.01943496
0003e0 56 ab a3 bd 9a 28 67 bd 5e 07 7e bd e9 26 90 bd
       -0.07991664 -0.056435205 -0.062018745 -0.070386715
0003f0 6d 6e a2 3d f7 73 18 bd df bf 99 bc 22 e0 87 3c
       0.07931218 -0.037219968 -0.01876825 0.016586367

fc1.bias f4 [30]
000000 19 c0 83 3b 8f 9a 1f bd 43 6d 56 bd 7c ba 1d 3d
       0.0040207026 -0.038965758 -0.052350294 0.038507923
000010 02 9d 80 bd 4b b8 c4 3b 4e 7d 47 3e f5 08 9d 3d
       -0.06279947 0.0060034147 0.19481394 0.07667724
000020 24 b2 fe 3c 72 eb 0d 3b cb 13 8c 3a 67 bb a9 3d
       0.031090803 0.002165523 0.0010687051 0.08287697
000030 df ab 0d 3d 6e 6f 9f ba 4b d0 af 3b 96 0c ba 37
       0.034587737 -0.0012163946 0.0053654066 2.2178789e-05
000040 1f 65 10 3a 73 66 95 3b 4f 1a 23 3b e4 47 df 3d
       0.0005508232 0.004559332 0.0024887507 0.10902384
000050 d4 99 7c ba 51 3c 73 3c 66 d6 d6 3a b4 31 59 3d
       -0.0009635959 0.0148459235 0.00163908 0.053025916
000060 39 00 22 3d b2 85 73 3c 0f 16 b0 3d 81 25 13 3d
       0.039550994 0.014863418 0.08597957 0.03592444
000070 02 d5 0d 3e 1c b8 76 b9
       0.13850787 -0.00023528974

fc2.weight f4 [20, 30]
000000 fc c9 71 bb af 5b 27 bd c4 e5 86 bd fd 87 97 3d
       -0.0036894074 -0.04085892 -0.06586793 0.073989846
000010 18 dd a1 bd e3 d1 f8 3e b7 66 88 3e 5a a2 81 bd
       -0.079034984 0.4859763 0.26640865 -0.06329794
000020 0f 9f 8c 3d ec 1f 3a 3e 0d a3 d6 3a c4 28 99 3e
       0.068662755 0.1817624 0.0016375497 0.29913914
000030 04 c7 60 3d 09 79 95 bd 77 f1 5b bc a7 5d 07 39
       0.054877296 -0.07298476 -0.013424269 0.00012909491
000040 8e f1 ab 3a df 0b 32 3c c4 d5 5f 3b 18 ef 1e be
       0.0013118254 0.010867088 0.0034154514 -0.15520895
000050 0b aa 06 bc 3a 75 87 bb e0 be 7f 3b 8a 87 b2 bd
       -0.008219252 -0.0041338475 0.0039023682 -0.08717258
000060 59 a5 dc 3d fc 7b 5b 3d 13 3f ad 3e 3e 6f 53 3d
       0.10773725 0.053585038 0.33837184 0.05161976
000070 d2 52 9b be ba 9f e5 3a ac 94 09 31 59 01 87 32
       -0.30336624 0.0017518916 2.0020634e-09 1.5716681e-08
000080 ae 94 ec 32 1c 17 05 b1 66 67 0e 33 98 64 b3 2f
       2.7541628e-08 -1.9367183e-09 3.315599e-08 3.2631386e-10
000090 55 4a 0d b2 6a 86 db 31 16 ac a9 b0 ae 16 0a 2f
       -8.224181e-09 6.38902e-09 -1.2345278e-09 1.2559084e-10
0000a0 2e 73 70 ae 79 e3 2e b1 a6 17 b3 b0 7f 31 0b 33
       -5.4671982e-11 -2.5449636e-09 -1.3030685e-09 3.2408476e-08
0000b0 79 f3 a3 31 ac aa 30 ad b0 88 12 ae 3d e9 a1 af
       4.771604e-09 -1.00423385e-11 -3.331796e-11 -2.9451455e-10
0000c0 60 70 ce ae 58 3b 4e 31 e2 11 89 31 86 3d 59 31
       -9.387757e-11 3.0010678e-09 3.989258e-09 3.1612628e-09
0000d0 b5 f1 ea ae 80 51 6b 30 bb 6e 7f af 48 f7 f7 af
       -1.0684024e-10 8.560832e-10 -2.3231454e-10 -4.5104742e-10
0000e0 50 0c 43 b1 62 a8 84 b0 a7 b2 68 b1 11 c9 ee 2d
       -2.8383234e-09 -9.652121e-10 -3.3861995e-09 2.7146759e-11
0000f0 9b 13 2e 3c 58 8d 5c 3d f0 53 d9 3d 85 57 fb bc
       0.0106247915 0.053845733 0.10611713 -0.030681381
000100 c4 75 02 3e fe 08 43 be 5f 33 a6 bd 09 c5 ef 3d
       0.12740237 -0.19046399 -0.08115267 0.11707503
000110 35 75 bf bc d3 dd 90 bd 9c 66 ef b9 2d bb fc bd
       -0.023371318 -0.070735596 -0.00045662082 -0.123403884
000120 f6 d7 82 bc 10 9b 43 3e f5 8e b3 3c 01 46 f8 b7
       -0.015972119 0.1910212 0.021918753 -2.9596502e-05
000130 e1 0d a9 b9 74 d5 2e bb de c4 86 ba da 8e 7d 3e
       -0.00032244532 -0.002667752 -0.001028206 0.24761525
000140 70 7a af 3c a7 bb 8f 3c ab 7f 7b ba b4 64 e6 3d
       0.021420687 0.017545534 -0.0009593914 0.11249676
000150 d5 5c 25 bd b0 a0 b5 bc e5 ed 0e be 78 f3 7e bc
       -0.040371735 -0.022171348 -0.13957937 -0.015560977
000160 6a 61 c0 3e f3 a4 42 ba e8 86 89 b7 4c f8 3e b9
       0.3757432 -0.0007425092 -1.6394493e-05 -0.0001821231
000170 e2 a2 98 b9 7c 29 ac 39 12 e1 b7 b9 18 fa 0c 3b
       -0.00029113056 0.00032837305 -0.0003507217 0.0021511372
000180 0c 78 9b 3a fa 73 92 b9 fd a4 9f 39 ae 82 53 3a
       0.0011861338 -0.000279337 0.0003044977 0.0008068484
000190 19 f9 f3 36 d6 b3 ad 3a 72 86 7f 39 7b d8 a9 b9
       7.270963e-06 0.0013252448 0.0002436878 -0.00032395482
0001a0 a2 04 7a b8 17 b3 19 35 2b 5e c3 36 3d 3f 4a 38
       -5.960896e-05 5.725755e-07 5.8224155e-06 4.821945e-05
0001b0 ae 40 7e 37 29 43 34 ba 92 36 19 b8 61 72 99 b7
       1.5154639e-05 -0.0006876463 -3.6528865e-05 -1.8292283e-05
0001c0 cf 46 91 37 c9 ce ca b9 88 c1 fa 39 3b 7e 79 39
       1.731832e-05 -0.0003868251 0.00047827908 0.00023793515
0001d0 62 d6 c3 3a c0 1a 70 39 e5 97 b0 ba 5f 77 02 37
       0.001494121 0.00022898149 -0.0013473002 7.776397e-06
0001e0 3f f9 09 b5 08 27 bf b6 a2 4e 19 b7 a3 97 2c 37
       -5.139918e-07 -5.6967874e-06 -9.137819e-06 1.0287305e-05
0001f0 22 97 38 b7 68 39 8d 38 57 cc 1b 38 26 b6 12 b7
       -1.1002443e-05 6.734097e-05 3.7145186e-05 -8.744688e-06
000200 17 21 20 37 fe d9 d3 37 bc a4 74 34 1e f5 2d 38
       9.5444475e-06 2.525467e-05 2.2784201e-07 4.1474697e-05
000210 31 28 00 37 da 25 2a b7 72 51 fb b5 52 3a 9a 32
       7.638752e-06 -1.0141603e-05 -1.8724661e-06 1.795448e-08
000220 f7 d3 43 34 c3 d6 ca 35 dc ec fe 34 7a 86 b4 b7
       1.8237903e-07 1.5112677e-06 4.7483525e-07 -2.1520293e-05
000230 fe e1 99 b5 1c e5 19 b5 c4 ad 11 35 5a 24 4b b7
       -1.1465161e-06 -5.733034e-07 5.426957e-07 -1.2108207e-05
000240 97 68 7b 37 36 f3 f9 36 f7 c6 44 38 49 d7 f0 36
       1.4985118e-05 7.4490918e-06 4.6915342e-05 7.17762e-06
000250 0d 40 31 b8 3f d2 82 34 86 af 00 3b 4d d4 22 3c
       -4.225974e-05 2.436736e-07 0.001963587 0.009938312
000260 fa d3 a0 3c c2 85 b9 bb 65 ce c1 3c 12 5e 10 bd
       0.019632328 -0.005661697 0.023657987 -0.035245962
000270 a4 5d 75 bc 40 57 b1 3c d0 f2 8c bb d0 ff 56 bc
       -0.014975939 0.02164805 -0.0043014064 -0.013122514
000280 79 82 b0 b8 71 78 ba bc 67 f9 40 bb 61 d0 10 3d
       -8.4166364e-05 -0.022762509 -0.002944553 0.035354976
000290 b8 8e 84 3b 58 20 b7 b6 d6 8c 79 b8 69 03 01 ba
       0.0040453337 -5.4575903e-06 -5.949739e-05 -0.00049214676
0002a0 e8 05 47 b9 1b 51 3b 3d 27 b6 81 3b 51 79 54 3b
       -0.00018980319 0.045731645 0.003958482 0.0032420943
0002b0 b3 2e 39 b9 85 3c aa 3c 7f f1 f3 bb 6c bb 86 bb
       -0.00017660372 0.020780811 -0.00744456 -0.004111698
0002c0 76 ac d3 bc e1 37 3c bb ae c8 8d 3d bb d4 0f b9
       -0.025839072 -0.002871983 0.06923042 -0.00013716791
0002d0 bd a6 80 3b 0a cc a2 3c 6d d2 20 3d 2b 76 39 bc
       0.0039261268 0.019872684 0.039263178 -0.011319677
0002e0 74 b2 41 3d b0 59 90 bd aa 4a f5 bc 62 53 31 3d
       0.047289327 -0.070483565 -0.02994283 0.04329241
0002f0 b9 e5 0c bc fa ef d6 bc 3d 6c 30 b9 4b 72 3a bd
       -0.008599692 -0.026237477 -0.0001682499 -0.045519155
000300 f3 e7 c0 bb 3d cc 90 3d f7 89 04 3c 40 11 37 b7
       -0.0058870255 0.07070205 0.008089534 -1.0911666e-05
000310 57 6a f9 b8 c8 f8 80 ba b5 f7 c6 b9 d7 49 bb 3d
       -0.000118930526 -0.0009839768 -0.0003795006 0.09144943
000320 7c b5 01 3c a5 69 d4 3b 23 1b b9 b9 84 36 2a 3d
       0.007916804 0.0064823204 -0.00035306168 0.041555896
000330 9d d6 73 bc 9d a9 06 bc 68 9f 53 bd 7c 25 bc bb
       -0.014882711 -0.00821915 -0.051665694 -0.005741773
000340 2a c0 0d 3e 03 bd 8f b9 c1 48 46 2f 3a dd bb 30
       0.13842836 -0.0002741591 1.8033842e-10 1.3668917e-09
000350 d0 3d 24 31 90 26 36 af 05 03 46 31 1f fe ed 2d
       2.3900277e-09 -1.6566504e-10 2.8814509e-09 2.7056633e-11
000360 70 fa 41 b0 dc b2 19 30 98 33 dd ae e9 f7 25 2d
       -7.0568884e-10 5.591525e-10 -1.0059081e-10 9.434211e-12
000370 85 41 32 2c d7 f2 66 af 0d 45 f4 ae 36 9a 41 31
       2.5331692e-12 -2.1004652e-10 -1.1108101e-10 2.8172855e-09
000380 63 01 e0 2f ed a0 8f 2c 20 17 8d ac ca f7 b0 ad
       4.0746348e-10 4.082171e-12 -4.0100284e-12 -2.0118924e-11
000390 1e d8 47 ad 57 7a 92 2f cb 6d c1 2f 36 f7 93 2f
       -1.1359828e-11 2.6644173e-10 3.5184508e-10 2.6914798e-10
0003a0 6d 19 16 ad 15 ab b1 2e 86 77 b3 ad 2f f9 0b ae
       -8.5321585e-12 8.0794184e-11 -2.0403023e-11 -3.182626e-11
0003b0 e5 8d 83 af a6 ee c6 ae 14 63 a5 af a6 55 9b ac
       -2.3929583e-10 -9.04639e-11 -3.0083724e-10 -4.414874e-12
0003c0 74 d6 5f 3c 8d e5 8d 3d 4c 43 0c 3e 24 ac 21 bd
       0.013661969 0.06928549 0.13697547 -0.039470807
0003d0 04 42 29 3e 51 e0 7a be d8 09 d6 bd d2 ca 1a 3e
       0.16529089 -0.24499632 -0.10451096 0.15116432
0003e0 32 a2 f6 bc f9 03 bb bd fe 3d 1a ba 41 c0 21 be
       -0.030106638 -0.09131617 -0.00058838713 -0.15795995
0003f0 bd 4f a8 bc ae 5e 7b 3e 3b 2c e7 3c 6e 14 20 b8
       -0.020545835 0.24547836 0.028219333 -3.8166e-05

fc2.bias f4 [20]
000000 b1 0e bb 3e 64 6d 83 b2 a8 25 e7 3d be 7a d4 3a
       0.36534646 -1.5300152e-08 0.11286479 0.0016210896
000010 50 1c 55 38 b7 00 ab 3c 3b f8 2a 3d cd 2b b7 b0
       5.0809525e-05 0.020874364 0.041740637 -1.3327451e-09
000020 eb c3 14 3e b1 cd a2 3d 0c f5 0c b2 a1 c6 a2 3b
       0.14527862 0.07949389 -8.20479e-09 0.004967526
000030 69 17 11 3d a5 23 89 3e 05 1b 3f 3d 23 cb fd 3c
       0.035422716 0.26785007 0.046656627 0.030980652
000040 85 42 25 b2 00 7f d1 3d c7 42 b6 3c 7a 6e 08 b0
       -9.619389e-09 0.102293015 0.022248639 -4.963351e-10

fc3.weight f4 [1, 20]
000000 75 7a 6c bf ec b8 80 33 f4 24 21 3f c3 5f 86 bb
       -0.92374355 5.9941016e-08 0.6294701 -0.004100771
000010 0e ae 06 b9 91 ff ed 3d 9a f7 6d 3e f6 f0 b2 31
       -0.00012844076 0.11621011 0.23238984 5.207876e-09
000020 fe 5d 4f 3f ec e8 4d be 29 04 0a 33 de e4 4d bc
       0.81002796 -0.20108384 3.2134412e-08 -0.012566773
000030 4a 51 4a 3e 59 5b 2d bf 65 64 f1 bd be ba 30 3e
       0.19757572 -0.6771751 -0.11786727 0.17258736
000040 17 5c 20 33 c8 02 12 3f 67 82 66 bd 3b 88 04 31
       3.7336658e-08 0.57035494 -0.056276705 1.9285966e-09
