ModelPack/clean_17_models/NN/simple_nn_17.pth (torch, 9239 bytes, 5 tensors)

fc1.weight f4 [30, 38]
000000 8e 29 ec bc 18 56 25 bc ba b1 25 3c 9e 0f ca bc
       -0.028828409 -0.010091327 0.010113174 -0.02466565
000010 42 8c 0f 3c 11 22 0e 3b bb 23 5d bc d8 e5 67 bc
       0.008761467 0.0021687786 -0.013497288 -0.01415392
000020 44 fe 9c bc 32 5e 8c 3c f1 23 8f 3d d7 8e 13 bd
       -0.019164212 0.01713476 0.06989277 -0.036024895
000030 a5 1a bd 3d d5 d3 de 3d 0a be 73 bb 9a 1a b3 bc
       0.09233598 0.108802475 -0.003719213 -0.02186327
000040 b4 17 6c 3d bb 95 f1 3c 07 a7 8d bc 62 67 9c 3c
       0.057639793 0.029490342 -0.017291559 0.019092266
000050 be 7b 94 3c 0c 74 37 3d a2 c8 5c 3d 67 8b 8d bc
       0.018125411 0.044788405 0.053902276 -0.017278386
000060 de c4 35 bd 97 07 81 3a ee 71 00 3d a6 e2 32 3c
       -0.0443772 0.0009844181 0.03135865 0.010918295
000070 4c 36 ae bc db 8b d9 bc 70 35 f3 bb 69 d7 57 bc
       -0.021266125 -0.026555946 -0.0074221417 -0.013173916
000080 f0 e5 c4 3d 2a 2a c9 3d 9d 40 ac 3d c2 e2 9c 3d
       0.096141696 0.09822495 0.084107615 0.07660438
000090 3a a4 90 3b cc d8 da 3d 34 cd 04 3e 10 61 4c bd
       0.0044141086 0.10685882 0.12968904 -0.049897254
0000a0 a8 aa 83 3c f6 92 aa ba 5d fa 81 bb 0b be dc 3c
       0.016072586 -0.0013013768 -0.003966613 0.026946088
0000b0 fb 58 af 3d 2f 9b ac 3c ab b7 4b 3d 4d 03 f2 3d
       0.085618936 0.021070091 0.049735706 0.11817036
0000c0 d2 fb 7d 3b 20 d9 5d 3e b7 b8 22 3d e4 18 38 bc
       0.0038754833 0.21664858 0.03972694 -0.011236403
0000d0 74 5b fa 3b 62 16 70 3c 8b e3 b7 bd de 25 67 bd
       0.0076402966 0.014653774 -0.08978947 -0.056432597
0000e0 bf f1 dd bb 44 ff af bd 52 3c 4d bd 50 a9 81 bd
       -0.006773203 -0.0859361 -0.050106354 -0.06331122
0000f0 25 92 81 bd 4d 81 fd 3c 89 53 8d bc 36 36 36 3d
       -0.06326703 0.030945444 -0.017251747 0.044485293
000100 eb 89 30 ba ab 99 4c bc 59 4e 80 3d cf 3c 94 3d
       -0.00067344186 -0.012487809 0.06264944 0.07238161
000110 bb 99 30 be ce d2 35 3e 76 f4 a1 bc f6 38 7f 3b
       -0.17246144 0.17756197 -0.019769888 0.0038943863
000120 c0 3e aa bc e4 bd d1 bd fb c4 a0 bc 2b 7e 4e bb
       -0.020781875 -0.10241297 -0.019625178 -0.0031508307
000130 c5 2a 9f 3d 66 fd 2c 3d ee 19 0c 3c 6a 25 1b 3b
       0.077718295 0.042233847 0.008551104 0.0023673424
000140 33 3b 5d bc 0c 9a d9 3c 31 5f 86 3d b3 8c 1e bc
       -0.013502884 0.026562713 0.06561125 -0.0096771
000150 14 72 8a 3b 87 86 9a 3d 77 2f e9 3c b7 41 73 bd
       0.004225025 0.0754519 0.028465016 -0.059388842
000160 3a 40 4e 3b b5 f6 b3 bc 1f 21 63 3c b7 8b 2a 3d
       0.0031471387 -0.021968225 0.013862877 0.04163715
000170 95 ad 02 bc 8e dd 02 bd 9a 91 c1 bc 94 33 28 3d
       -0.0079759555 -0.031949572 -0.023628999 0.041064814
000180 f7 9d e1 bb a9 f2 08 bd 37 fc 10 bc 19 c0 54 3b
       -0.006885286 -0.033434544 -0.008849195 0.0032463132
000190 f9 df 96 3d 4d f8 38 bd 9b f0 86 bc 66 70 14 bc
       0.07366938 -0.045158673 -0.016472152 -0.009060001
0001a0 51 bc cd bc dc 99 ff 3c 5a ae da bc f4 1b 2f bd
       -0.02511421 0.031201296 -0.026694465 -0.042751268
0001b0 6c fc b7 3c 0a 6a 8a bb 6f 73 50 3c ec a8 79 bd
       0.022459231 -0.0042240666 0.012722834 -0.060952112
0001c0 5f 66 2b 3c db 55 b6 bb 19 72 d8 3d bd 4b c1 bc
       0.010461419 -0.005564434 0.105686374 -0.023595685
0001d0 67 1c a5 bc 99 c4 bc 3c 26 54 1e 3b b4 e0 d2 3b
       -0.020155145 0.023042964 0.0024159043 0.006435478
0001e0 b6 c0 a2 bb 19 45 11 3d cf f1 67 3c 38 b8 95 bc
       -0.0049668206 0.035466287 0.014156773 -0.018276319
0001f0 28 0b fc bc ae 6a fa 3d 65 fb 99 3b 96 53 b3 bc
       -0.030767038 0.12227379 0.004699158 -0.021890443
000200 e7 ef 9c bc 4b 07 80 3c bf aa 00 3c 71 33 a4 bb
       -0.019157363 0.015628478 0.007853209 -0.005011015
000210 80 ad 53 3c c5 27 f5 bc bc a6 4c bc 61 70 dc bc
       0.012919784 -0.02992619 -0.012490924 -0.026909055
000220 a8 24 67 3c e9 21 4a 3c 29 2a 88 bc 48 9c d0 3c
       0.014107861 0.012337186 -0.016621666 0.025465146
000230 94 f1 c7 bc 29 b6 a1 bb af 69 31 3d 23 88 05 3d
       -0.024407186 -0.0049350453 0.04331368 0.032600533
000240 d5 5b 1c bd 52 77 f1 3d 7f 50 f6 bc 78 4a f9 bc
       -0.038173515 0.11790337 -0.03006768 -0.030431017
000250 7d f7 f6 bb a9 ce a6 3b bd 66 7a 3c 49 33 71 bc
       -0.007536827 0.005090554 0.015283284 -0.0147217
000260 5f cc 3c bd 24 d2 f1 bc 1c 8b 70 3a fe 65 8a 3a
       -0.04609334 -0.029519148 0.00091760023 0.001055896
000270 78 1f 7e 3c d0 35 80 bb 76 05 01 bd ee 7c e5 3b
       0.015510432 -0.003912665 -0.03149935 0.007003418
000280 f5 08 16 bd 53 e6 80 bd d5 9f 1e bd 04 a4 5c bd
       -0.036629636 -0.06293931 -0.038726646 -0.053867355
000290 bf fc ec bc 92 43 e9 bb b2 6c 4d bb 43 e4 d4 bb
       -0.028929112 -0.0071186507 -0.0031345305 -0.0064969375
0002a0 85 f6 09 3d ec c8 83 bc 8b 5d 66 3b 15 eb e7 3a
       0.033682365 -0.016087018 0.003515097 0.0017693961
0002b0 7b 9f cf b9 94 e2 30 bb 5d 18 b6 3b 49 c4 d4 bb
       -0.0003960094 -0.002699052 0.0055571035 -0.0064931256
0002c0 f1 df f8 bb de fe a3 3c 36 f1 11 bc f3 49 47 3c
       -0.0075950553 0.020018991 -0.008907607 0.012163627
0002d0 18 08 87 3c 42 93 5b bc 9c 46 b1 3c 7a 6e 7e bd
       0.016483352 -0.013401808 0.021640114 -0.062117077
0002e0 c9 cd a8 bc b2 c4 41 bc b2 71 4c bc 16 3a 4d bc
       -0.020605939 -0.011826681 -0.012478279 -0.012526056
0002f0 01 a1 26 bc 4d 0d 4f bd 84 f9 4a 3b c6 f7 53 3c
       -0.010170222 -0.050549794 0.0030971477 0.012937492
000300 b1 a2 ce 3b 37 30 27 3c d4 49 a9 3c f4 c0 87 bc
       0.0063060154 0.010204366 0.020665087 -0.0165715
000310 c8 82 61 bc 12 a2 c9 3b ba e0 80 bc 6a e7 7f bc
       -0.013764091 0.0061533535 -0.015732158 -0.015619138
000320 f7 31 96 3d c0 54 0b bd 59 2b 82 3d 57 4f a0 3d
       0.07333749 -0.03401637 0.06355924 0.07827633
000330 ff 8c 91 ba 39 1e a4 bc 65 96 c4 3b 5d c5 25 3d
       -0.0011104642 -0.020033943 0.0059993737 0.040471423
000340 99 fd 7c 3c e8 f2 9c 3c b1 c9 36 3d 6a 58 3f 3d
       0.015441322 0.019158795 0.04462594 0.046715178
000350 b9 69 d7 3c bb 39 ed 3b d5 aa d8 bc ce 2c 43 3c
       0.02629553 0.007239548 -0.026448647 0.011912538
000360 f9 82 ef bb ae bf 1f bb 40 da 32 bc ac 5c 72 3c
       -0.0073093143 -0.0024375725 -0.010916293 0.0147926025
000370 21 f6 c6 bc 38 88 19 bc da 38 76 3d d6 2d 9b 3d
       -0.024287285 -0.009370856 0.06011281 0.07577102
000380 30 f5 69 3d 90 69 94 3d 11 d0 8c ba e1 37 77 3d
       0.057118595 0.07246697 -0.0010743161 0.060356025
000390 3e 80 da bc 15 4c 33 3c 83 04 bf bc 5a c8 8d 3c
       -0.026672479 0.010943432 -0.023317581 0.01730745
0003a0 f9 6f bc bc 0c 62 fe bb 4f 95 4f bc 38 00 78 bc
       -0.023002611 -0.007763153 -0.012669875 -0.015136771
0003b0 d3 ee 4c bd a8 0f 3b bd c5 ee da bc 0d 81 40 bd
       -0.050032448 -0.045669228 -0.026725182 -0.046998072
0003c0 f9 01 fe bc a1 c1 fa bc 71 2e ad 3c 35 26 ba bc
       -0.0310068 -0.030609908 0.021140309 -0.022723297
0003d0 5a 27 7d 3c 00 f4 6e 3c 90 57 61 bb e9 c4 87 bc
       0.015451277 0.014584541 -0.0034384467 -0.016573386
0003e0 c9 3a 1a bc 6c 63 b2 3c 22 51 73 bc b1 b2 5c bc
       -0.00941343 0.021775924 -0.014850887 -0.013470338
0003f0 3b cd 94 bc ac a8 9c bc 0d c8 05 3c 64 5b d7 bc
       -0.018164268 -0.019123398 0.008165372 -0.026288696

fc1.bias f4 [30]
000000 81 b2 21 3d 54 0d fd 3d 09 d1 5e 3d f3 e2 05 3a
       0.039476875 0.12356058 0.05439857 0.00051073654
000010 7b 4a 25 bc b8 76 ed 3c 46 c6 cd bc cf 70 20 bd
       -0.010088558 0.028987274 -0.025118958 -0.039170083
000020 ae 7e 70 3d 1c e9 75 3c 88 fc fc bb 53 cb 54 3e
       0.05871456 0.015009191 -0.0077205338 0.20780687
000030 86 1a 9c 3c 57 d1 dc 3d 01 da 6d 3d 57 76 30 bc
       0.019055616 0.10782116 0.058069233 -0.010770402
000040 37 93 d6 bc 30 07 54 3d 04 92 01 bb c3 90 a9 3d
       -0.026193244 0.051764667 -0.001977087 0.08279564
000050 a7 d6 c1 3d 62 af 9f bc 0c 94 58 3c 5c 0e 93 3c
       0.0946477 -0.019492809 0.013218891 0.017951183
000060 94 7d 18 3d 58 6d 7f 3b d0 9a 82 3d dc 4b d8 bc
       0.037229136 0.0038975086 0.063771844 -0.02640336
000070 b3 44 4f 3d 5e 39 03 3e
       0.050602626 0.12814853

fc2.weight f4 [20, 30]
000000 6f 86 49 3d ab 62 8f 3b d5 06 ac bb 49 45 ed 3a
       0.04920047 0.004375776 -0.005249838 0.0018102314
000010 18 d5 95 3c 15 8f 05 3d 5b 1b d4 bc 65 5c a3 bc
       0.018290088 0.032607157 -0.02589195 -0.019941518
000020 9c 5c e4 3d 14 2a 85 3d 8a ed 80 3c ac f7 93 ba
       0.11150476 0.065021664 0.015738267 -0.0011289022
000030 28 ff 79 3d 9b 70 21 bc fe ad a4 bc f6 47 da 3c
       0.06103435 -0.009853507 -0.020102497 0.026645642
000040 d0 42 a6 3c 4b a7 db 3d 7a 39 85 3c e3 96 8f bc
       0.02029553 0.10725268 0.016262759 -0.017528003
000050 4a 8c bf bc 55 c3 57 3c ab 58 3d 3c fe e0 06 bd
       -0.023382325 0.013169129 0.011556785 -0.032929413
000060 1b 5a c3 3c cc 56 12 3c 3f 13 a0 bc 05 ff ed bc
       0.023846677 0.008931827 -0.019540427 -0.029052267
000070 04 e3 fb 3c 30 43 09 bd d2 3b 8b 3d d6 d6 4b bd
       0.030747898 -0.03351134 0.06798519 -0.04976543
000080 b3 da 01 bc cf 01 de bc 7f b7 54 3d 4f ff 44 3d
       -0.007925677 -0.027100472 0.051932808 0.048095044
000090 e0 62 bd 3c d5 8c c9 3d fa 99 bc 3d e7 dd 70 3c
       0.023118436 0.09841315 0.09209056 0.014701343
0000a0 cf 69 1b 3c 7e b3 65 bd 03 15 1a 3d de e8 56 bd
       0.009485676 -0.05607938 0.037617695 -0.052468173
0000b0 1d 61 18 3c cf dd d6 bb 7a e5 71 bc 7b f7 fa 3d
       0.009300497 -0.0065572034 -0.014764184 0.122542344
0000c0 07 12 99 3c 83 29 fd bc 7e b3 5b bd ac 80 64 3c
       0.018685354 -0.030903583 -0.053637974 0.013946693
0000d0 8a 52 1c bd 9a 01 42 3d ca b1 c3 3c 25 8a 27 bd
       -0.038164653 0.04736481 0.023888487 -0.04090323
0000e0 2b 50 c1 bc f1 bb ef 3d 1c c3 e7 3b eb b5 0b bd
       -0.023597797 0.11705769 0.0070728194 -0.034109037
0000f0 11 31 f6 bc 1c 96 78 3e e2 3d fe 3d 90 60 fb 3d
       -0.030052694 0.24276012 0.12414147 0.12274277
000100 5b 2f 8c bd 9f fb 0a bd 67 57 6d bd d4 c2 0c be
       -0.0684497 -0.03393137 -0.05794468 -0.13746196
000110 76 13 5d bd bf 38 a9 bc 60 0d f6 bc 20 a7 86 3e
       -0.053973638 -0.020656941 -0.030035675 0.2629938
000120 40 ce 49 bd 46 5d 4b 3e 87 a9 80 3d fb 05 b9 3c
       -0.04926896 0.198598 0.06282335 0.02258586
000130 bb 16 ba bb 7f c4 96 bd d2 f4 34 bc b5 89 3a 3e
       -0.005678979 -0.073616974 -0.011044698 0.18216594
000140 c9 58 9b 3e 15 19 96 bd ca 94 2e 3e c4 f2 6b bc
       0.30341175 -0.07329003 0.17048946 -0.014401142
000150 82 bb 89 bc 7b 6f 91 3d f5 da fb 3d 71 79 31 be
       -0.016813044 0.07101341 0.12297622 -0.17331482
000160 46 e5 0d 3d 08 ae 24 3e 21 de 06 bd 47 84 03 3e
       0.03464248 0.16082013 -0.032926682 0.12843429
000170 99 0a 96 3d 7c ff 18 3d c9 6b 32 bd 78 eb 80 3c
       0.0732624 0.037353024 -0.043559823 0.01573728
000180 90 d6 99 bc 24 7b 8c bd 8f d0 c8 bc 76 4b d3 bc
       -0.01877907 -0.06859425 -0.024513511 -0.025792819
000190 4a f5 b3 bc 2b 3a 0e 3e 93 73 02 bd 8d 34 bb 3d
       -0.021967549 0.13889377 -0.0318485 0.09140883
0001a0 b2 62 0e 3c ce 4d ad 3c 3b ef cd 3b a3 0a 44 bd
       0.008690523 0.021155264 0.006284622 -0.047861706
0001b0 02 55 57 3c 62 3b b5 3d 55 36 34 3e 08 69 ee bc
       0.013142826 0.08849217 0.17598851 -0.029102817
0001c0 02 41 99 3d 97 42 84 bc 23 98 54 3c 6e 80 91 3c
       0.074831024 -0.016145034 0.012975725 0.017761435
0001d0 a7 58 f9 3c 07 a8 c8 bd b8 67 13 3d 53 20 d3 3d
       0.03043778 -0.09797674 0.035987586 0.103089
0001e0 b8 ba 2a 3c 9a 99 1a 3d 74 fd 40 3c 65 03 8a 3c
       0.010420494 0.037744142 0.011779178 0.016847322
0001f0 48 dc 7e bc 6a 3b 63 3c 9b 1b a4 bc 50 da fc bb
       -0.015555449 0.013869146 -0.020032695 -0.0077164546
000200 50 51 b5 bc 77 0d c4 3a 5c f6 98 3b 47 05 bd 3c
       -0.0221335 0.0014957626 0.00466804 0.023073805
000210 36 d4 9b 3c 1c 68 11 3b 6b d6 a7 bc 0a 54 f5 3b
       0.019022088 0.0022187298 -0.020487985 0.007486825
000220 46 bf 3e 3c 3d df 80 bc c7 f7 aa 3c c4 c3 8a 3c
       0.011642283 -0.015731448 0.020870103 0.016939051
000230 49 8d ea 3c 8a b1 4d bc 41 43 f1 39 58 f6 4a bc
       0.028631823 -0.012554536 0.0004601721 -0.0123878345
000240 7a c2 11 3b 1f 23 90 bc 48 9c 88 bc 62 73 77 bb
       0.0022241161 -0.017594872 -0.016676083 -0.0037757982
000250 9a d0 c9 bc 36 fa 08 3c 8d 74 be bc 12 c4 3d 3c
       -0.024635602 0.008360436 -0.023248935 0.011582391
000260 1a a9 1a 3c 66 fb b5 bc 6a de 5d bc aa b2 82 39
       0.009439731 -0.022214603 -0.013541797 0.00024928647
000270 29 35 b8 bc c9 4c a5 bc 91 48 21 bc 8f 91 6b 3c
       -0.022486286 -0.020178216 -0.009843961 0.014377966
000280 ba d0 c2 3c ba cb 10 3b 91 ec 55 bb 08 a9 0c 3c
       0.02378117 0.0022094087 -0.0032642225 0.008585222
000290 83 57 97 bc ec 8c ad bc b6 07 74 bc a4 63 ac 3c
       -0.018474346 -0.02118536 -0.014894417 0.021043606
0002a0 91 3d 08 bc 10 02 d3 3b f7 37 b3 ba 5b 0a a9 bc
       -0.00831546 0.006439455 -0.0013673295 -0.02063482
0002b0 27 ce d8 3a 73 2f bb 3c 96 06 12 bb bf b0 30 bc
       0.001654093 0.022849774 -0.0022281758 -0.010784327
0002c0 6b 99 47 bc 5c 60 25 3c 23 ff 75 3a 4a 62 60 bc
       -0.012182574 0.010093775 0.00093840266 -0.013695309
0002d0 2a 05 bf bc 13 d6 c6 bc d1 c6 52 b9 ee 96 02 3c
       -0.023317892 -0.024272 -0.00020101226 0.007970555
0002e0 3b 70 88 bc 13 3a 22 bc b2 e8 77 bc 78 8a 86 3c
       -0.016655078 -0.009901541 -0.0151311625 0.016423449
0002f0 a3 98 6c bb 74 20 10 3c 05 9a 41 3c 2a 62 72 bb
       -0.003610172 0.0087968 0.011816506 -0.003698478
000300 a8 23 b7 3b e8 da 47 3c 92 fd aa 3c 9f f1 ce 3a
       0.0055889674 0.012198187 0.020872865 0.0015788561
000310 b3 ac 8a bc e2 12 2e 3c b6 79 c9 bc b9 e4 c4 bc
       -0.016928053 0.010624619 -0.02459417 -0.024034845
000320 dd 16 ef bb c2 7f 36 bc af a2 d9 3c 83 9e 6c bb
       -0.0072964267 -0.011138858 0.026566831 -0.0036105223
000330 25 87 5f 3b 56 8e 35 bc 6f bd 73 3c b8 84 59 bb
       0.0034107652 -0.011081299 0.014876707 -0.0033190679
000340 9e fa 68 3c 48 33 a0 3b d2 e2 af 3d dd a0 8b 3b
       0.014219908 0.0048889257 0.085881844 0.0042611198
000350 c1 b4 f7 bc 4c 1e d5 bc 2b 07 8a 3c 6a 94 41 3d
       -0.030237557 -0.026015423 0.016849121 0.04726068
000360 55 a9 b6 bb 0a 16 4a bc 64 bf e8 3d 1b eb 86 3d
       -0.005574385 -0.012334356 0.1136463 0.065878116
000370 8c ef 29 bc 47 b2 98 bc 6a c6 89 3d b7 c6 9b 3b
       -0.010372054 -0.018639697 0.067272976 0.0047539133
000380 fa 86 a0 3b 40 f3 80 bc 66 b7 bd ba da 46 f5 3d
       0.004898903 -0.01574099 -0.0014474213 0.119764045
000390 37 b5 9b 3c 52 f8 51 bc 65 db da bc 66 16 d5 3b
       0.019007308 -0.012815552 -0.026715944 0.0065029142
0003a0 1f a3 a4 3c e6 ce 8b bc 67 29 6c 3d 4f b6 6e bc
       0.020097313 -0.01706643 0.05765667 -0.014569833
0003b0 62 6a a9 3c 37 36 74 bc 59 eb 19 3d 2a 07 fa bc
       0.02068061 -0.014905504 0.03757796 -0.030520994
0003c0 3a f4 3b 3a 0c fa 08 bc 92 6b ab 3a b3 44 2d bb
       0.00071698765 -0.008360397 0.0013078323 -0.0026438653
0003d0 75 de b8 3b 6c 59 7f bc 94 ee c6 3b cc 5a ff bb
       0.0056417533 -0.015585285 0.006070921 -0.0077928063
0003e0 05 cd 61 3c 2b ff 9b bc c0 1a d6 bb a0 4d b1 bc
       0.013781791 -0.019042572 -0.0065339506 -0.02164346
0003f0 f4 51 08 3c d3 06 a5 bc c2 47 c5 3c 0e 0f 95 39
       0.00832032 -0.020144856 0.024082068 0.0002843071

fc2.bias f4 [20]
000000 42 44 ce 3c 6f 00 ad 3d 7c cc 84 3e 5a 91 0f 3e
       0.025179032 0.08447348 0.2593726 0.14020291
000010 60 88 a2 3c d9 24 bf bc e4 71 c7 bc 17 85 5d 3c
       0.01984042 -0.023333 -0.0243463 0.013520501
000020 26 bc 19 bc 13 c4 80 b9 0a b6 bd 3d 4c e8 ec 3d
       -0.009383237 -0.0002456015 0.09263237 0.115677446
000030 79 61 5d 3e ea 3d 0e 3e c1 f8 31 3e b8 6c 7c 3d
       0.21619214 0.13890806 0.17380048 0.06162712
000040 8d d6 ca 3d 3c e9 a1 3c e5 32 3d 3e 4a e4 22 3e
       0.099042036 0.019764535 0.18476446 0.15907398

fc3.weight f4 [1, 20]
000000 ee e9 46 3e 0d 5f 90 3e 39 92 3c bf 65 be c2 be
       0.19425175 0.28197518 -0.7366062 -0.38035884
000010 f1 de 4f bd bb 42 a5 bc fd 27 ba bc 3b ba 65 3e
       -0.050749723 -0.020173421 -0.022724146 0.22434323
000020 5e 51 c4 bc 44 1d 5d 3e 31 3b ae 3e c4 5f ab be
       -0.02396458 0.21593195 0.34029534 -0.334715
000030 74 69 25 bf 8d 75 c8 be 50 75 03 bf ec 9d 45 3e
       -0.64614034 -0.39152184 -0.5135088 0.19298524
000040 a0 e3 95 be f1 89 a7 3e df 82 2c 3f af 66 14 3f
       -0.29275227 0.32722428 0.67387193 0.5796918
