ModelPack/clean_18_models/NN/simple_nn_18.pth (torch, 9239 bytes, 5 tensors)

fc1.weight f4 [30, 38]
00000000: 86a8 e0bb e17e 0b3c ac7b 24ba e633 0dba
00000010: ce23 84ba 31d7 aeb9 168a 623c adc4 b9b9
00000020: 08b3 95bb 4434 39bb 2594 043c 7eb9 833a
00000030: 25aa acba bc35 3fba c075 523a 9d32 023a
00000040: e859 c93a cdba 643b 219b b7b8 1839 ef3b
00000050: f584 5139 cf4c 363c ab64 c43a 92e6 2ebb
00000060: 37f0 833b 9524 5bba bc9b 1f3a 0b45 bc38
00000070: 5393 2cbb 8c6f aa39 59f4 193a 8eca 1dba
00000080: 7139 8d3a d7a9 85bb 0d5d 11bc 8ac5 eebb
00000090: e463 9b3c 7182 b5bb a727 7cba 32a0 1ebc
000000a0: c1f9 06ba 1a98 c83a 507a 33ba a05c c5b7
000000b0: 253a f73a fb98 91bb 9006 c93a 76e7 da3b
000000c0: 08ba b23c d630 cebb 688e ac3b 9f49 033d
000000d0: ecbc 72bb fb65 53bb 7ce9 b3bb f421 bfbb
000000e0: 958b bcbb 1df5 33bc 544e d0bb 591c 1e38
000000f0: 0a67 e8bb 4d7b c1bb 2166 cdbb 0163 013b
00000100: 232e 003c d72b 383a 3862 19bb e867 27bb
00000110: b864 9ebb 08c2 bdbb 3250 ac3c bde4 e03b
00000120: 9ccd d83c 3ee8 633c 4284 cc3b f58e 213c
00000130: 2258 1dbd 5eff 29bc 77ba e83b d8e9 76bb
00000140: e0f4 e73b 2d88 3e39 b777 44bb ecaf 40bc
00000150: 05a6 acbc c894 a13c 0733 30bd 8cd5 23bc
00000160: 4cfc 29bd 7567 3cbd b822 ddbb 553d 84bb
00000170: 0f27 ef3c c3eb c53b 0d7c 0a3d d579 11bb
00000180: 4e14 103d eb7c 0bbd b661 b23c 47e4 283d
00000190: 0c6a 40bc fab6 2fbc 1780 0dbd c829 98bc
000001a0: f6cb 193b e0e3 cbbb 8366 723c 8d0a 51bc
000001b0: 54dd d2bc 7971 46bd 6d45 e0bc 99ae 803b
000001c0: 4901 4c3c 6134 55bd 650b 343e 1228 b9ba
000001d0: ba68 45bb 8f09 49bc 5e6a 92bb 6e5e 6abb
000001e0: 013b 7a3d e972 efbc 6b30 7a3d f2ee f13c
000001f0: 0a3c bf3c 9bab fdbc 9f14 dc3c d157 49bc
00000200: 6e46 1e3a 48d1 a8ba 859e e9bc 3524 a3bc
00000210: ee09 f9bc b206 4dbb 906d e6bc f2bd 34bc
00000220: c657 cdbc acfe f2bc df08 793c d76a 24bc
00000230: a095 b8bb 5b6d a7ba e9b8 01bc 69a4 a1ba
00000240: ec78 23bb 44c9 d3bc 5175 383d 3224 013d
00000250: 45b3 2a3b a538 5fbc 86eb 3ebe becb ad3c
00000260: 41de 10be 897c 7abd 5a6d 0fbb 0184 fc3b
00000270: ead1 d4ba 7603 98ba e793 fcbc 848f 2fbd
00000280: b372 33be 5250 81bd 91bb a23d 8eb4 0fbd
00000290: 34c8 9cbd e575 da3d 34eb 40bd 599b 72bc
000002a0: 8c6f e43c 8751 cabc 2065 363d bf77 54bd
000002b0: 2ed3 da3c 67ae 90bd 76fc 39bb fe69 2b3d
000002c0: 6ad1 62bd 60ca 05bd 50fd 55bd e135 58bd
000002d0: bf4a a1bc 8d53 90bc 5739 733c acae 36bd
000002e0: 468a 7c3d cdff b2bd fcbb 8b3d 77dc b33d
000002f0: ad9d aabd f371 9fbd c4dd ad3a d887 993b
00000300: 250d 2eba 55f9 bd39 a675 3dba f9d5 0e3a
00000310: fd52 17bb 6382 223b f095 55bb 267e adbb
00000320: 4c78 353b 0393 153c 3eb0 ff3b b0b6 73ba
00000330: 1e39 34ba d8c0 f8b9 3a08 023b 9898 9a3a
00000340: e9dd 193b 956b 9b3b 5e4c 3db9 3911 0e3b
00000350: 3e37 56b9 c486 04ba 31b3 733a c509 a03a
00000360: 6006 a2bb 129d 15bb b3e6 3c3b 164a 32b8
00000370: a779 23ba f400 7e3b c842 183b 6891 4a3b
00000380: c105 db39 9bf6 783b 4823 fcbb e4f3 123b
00000390: 2996 ce3c 2ed1 8eba 4133 babc cd26 0b3c
000003a0: 48f5 c1bc 42a2 a83a 2f77 7ebe 325b 94bb
000003b0: 5a8e 30bd e561 4fbe 0eb7 8abd 214e bd3d
000003c0: c1fb 8c3c 83ce a4bc d57c 9b3d 6ae1 41bc
000003d0: efdf 46be c334 c7bd 6138 75be e4da 09bd
000003e0: 665f 40be 8e34 093e 6bd5 27be 3180 65be
000003f0: 8209 293d 4e46 a93c 4734 a83b ec45 123c
-0.006856027 0.008514137 -0.0006274532 -0.00053864566 -0.0010081471 -0.00033348196 0.013826868 -0.00035432485
-0.0045684613 -0.0028259913 0.008091961 0.0010049788 -0.0013173266 -0.0007294079 0.00080284104 0.00049666484
0.0015361877 0.003490138 -8.755015e-05 0.0073005073 0.00019981324 0.011126711 0.0014983615 -0.0026687724
0.0040264386 -0.0008359638 0.0006088575 8.977399e-05 -0.002633293 0.00032508036 0.00058728975 -0.00060192577
0.0010774565 -0.0040790844 -0.008872283 -0.007286732 0.01896853 -0.0055392315 -0.0009618946 -0.009681748
-0.00051489106 0.0015304119 -0.0006846534 -2.3527362e-05 0.0018861933 -0.0044432855 0.0015337039 0.0066804243
0.021817222 -0.006292443 0.0052659996 0.032052632 -0.0037038876 -0.003225683 -0.00549048 -0.005832905
-0.005753944 -0.0109837325 -0.0063569937 3.7696536e-05 -0.0070923613 -0.005904591 -0.006268278 0.0019742849
0.0078235 0.00070255756 -0.002340449 -0.002554411 -0.004833784 -0.0057909526 0.021034334 0.006863205
0.02646523 0.013910351 0.0062413523 0.009860744 -0.038414128 -0.010375826 0.0071023065 -0.0037676003
0.007078752 0.00018170541 -0.0029978582 -0.011760693 -0.021075258 0.019724265 -0.043017413 -0.009999644
-0.041500375 -0.0459971 -0.0067485236 -0.0040356317 0.02919343 0.006040068 0.03380971 -0.0022197862
0.035175614 -0.034054678 0.021775108 0.041233327 -0.011744034 -0.010724777 -0.034545984 -0.01857461
0.0023467517 -0.006222233 0.0147949485 -0.012758863 -0.025740303 -0.04844806 -0.027376855 0.0039270637
0.012451478 -0.052051906 0.17582472 -0.0014126322 -0.0030122236 -0.012270345 -0.0044682464 -0.003576185
0.061091427 -0.029229598 0.06108133 0.029532883 0.023344059 -0.030965617 0.026865302 -0.0122890035
0.00060377165 -0.0012879753 -0.02851797 -0.019914726 -0.030400243 -0.0031284508 -0.028128415 -0.011031615
-0.025066268 -0.029662453 0.015199869 -0.010035238 -0.005633071 -0.0012773679 -0.007917621 -0.0012332323
-0.0024943901 -0.025852807 0.045033757 0.03152866 0.0026046794 -0.013624345 -0.18644533 0.021215316
-0.14147283 -0.061153922 -0.0021885247 0.007706166 -0.0016236876 -0.0011597711 -0.030832244 -0.042861477
-0.17524223 -0.06314148 0.07945932 -0.0350843 -0.07655373 0.10667018 -0.047099307 -0.014807546
0.027885221 -0.024697078 0.044530034 -0.05187201 0.026712026 -0.070645146 -0.0028379238 0.04184913
-0.055375494 -0.032663703 -0.05224353 -0.052785758 -0.019688962 -0.017617965 0.014845214 -0.044600174
0.061655305 -0.087401964 0.068229645 0.08782285 -0.083308555 -0.07785406 0.0013264944 0.0046853833
-0.0006639532 0.00036234656 -0.0007227309 0.00054487545 -0.0023090236 0.0024796955 -0.003259059 -0.005294579
0.002769011 0.009129289 0.007802992 -0.0009296937 -0.0006874966 -0.00047445926 0.001984133 0.0011794744
0.0023478216 0.0047430494 -0.00018052894 0.0021677746 -0.0002042921 -0.0005055482 0.0009296416 0.0012209943
-0.0049446076 -0.0022829217 0.002882403 -4.2507505e-05 -0.0006236084 0.0038757892 0.0023233164 0.0030909423
0.00041775222 0.0037988785 -0.0076946355 0.0022423202 0.025218086 -0.0010896081 -0.022729518 0.008493138
-0.02367653 0.0012865739 -0.24850152 -0.004527473 -0.043104507 -0.20252188 -0.06773196 0.092434175
0.01720989 -0.020118004 0.07592169 -0.011833528 -0.19421361 -0.097268604 -0.23947288 -0.033656016
-0.18786392 0.13398954 -0.16390006 -0.22412182 0.041268833 0.020663407 0.005133185 0.0089278035

fc1.bias f4 [30]
00000000: 0fe3 2938 bfa0 9b3c e3d5 4fbc ae30 ce3d
00000010: 557f af3d 9fbf 8bb6 29c9 623e 91be 62bc
00000020: 17ac 243c 82f1 aa3d c660 933c 7993 41bc
00000030: 64d5 5fbc 0b3d 8f3d 89d3 43be f627 2dbc
00000040: 992b 69bd d734 c8bb 69e5 353d ec79 b83c
00000050: c7f3 9c3d 518a 893c c711 b2bd ddd7 9c3d
00000060: ce3e 983c ae41 653e ff9d 1a3d a9fa 003d
00000070: 8f3a ea3c ffad 6e3d
4.0504205e-05 0.018997548 -0.012685272 0.10067879 0.085692085 -4.1648304e-06 0.22147049 -0.01383938
0.010050795 0.08346845 0.017990481 -0.011814945 -0.013661716 0.06994065 -0.19123663 -0.010568609
-0.056926344 -0.0061098146 0.044408236 0.022519074 0.07663684 0.016789587 -0.08694797 0.0765836
0.018584635 0.22388336 0.037748333 0.03148905 0.028592376 0.058271404

fc2.weight f4 [20, 30]
00000000: 6a5c fbbb c817 983c c2a2 1c3d 5fa4 d9bc
00000010: 205c e83d b5f1 83bb 31a5 0bbe 31a7 8d3c
00000020: 37ee 2c3d a575 993d 7159 12bc 4d06 c2bb
00000030: 7d18 2c3d e2ef 2cbd 6bc4 5cbe 98e1 c6bb
00000040: 2af3 e8bc 7724 443d f0f8 0e3d 2745 2a3d
00000050: 7210 75bc 3da4 dcbb 161e 43bd e2c4 a93d
00000060: 5a1c 2a3d fe9e 6f3e b1ca babc 30ba 76bc
00000070: 2ce3 ea3c bc1a 023e 28ec a23b d57d b03b
00000080: 21a8 a4bc df68 903d f223 01bd d402 823b
00000090: 807c 173e cb95 00bc 574f 65bc 12c9 8d3c
000000a0: 6b74 6b3c ea50 f63b a39a b6bc fbca 3e3d
000000b0: 582e ff3d 9597 c73b 3631 033d c87d 8dbc
000000c0: 67ac 663c dfe0 62bc 5aed 233d 6aa1 743c
000000d0: c0fa 423d 3b12 a6bc 021a 3fbc 71e4 80bd
000000e0: 7492 ce3c a6b7 c73c 0ecf e2bb 235b 5fbd
000000f0: 7d50 5c3c 90dc 623c 1eb4 53bd 8304 383e
00000100: 53a1 a3bd d71d 0e3c 884e c03e 6666 a1bc
00000110: b6f9 0ebd e3dc 303d 697a 1a3d faf4 9e3c
00000120: 16d9 67bd 5c0e f13d 2905 a23e 3462 683c
00000130: 69cf a53d 4dfe 34bd 563d 123d 6ec5 13bd
00000140: 7284 d13d 8b6b 183d cdb8 f63d c37d 4fbd
00000150: b4b4 f1bc baaf 23be 957a 823d bc20 7c3d
00000160: a42f 8dbc 8c50 0dbe 4579 ab3a 1ed9 b63a
00000170: 0a7b babb 3429 963c 0fbe 02bc b7e3 a53a
00000180: 7002 213d 8e5d 07bb be3c 6abb 23c8 9c3b
00000190: 5391 843b 5c0f 163b fda3 babb 105b 4b3c
000001a0: fc65 053d 971a 943a b58d 013c 679a 90bb
000001b0: 4b93 6e3b c1d4 73bb d005 303c da0d 843b
000001c0: 2cbb 4c3c 4e40 a9bb e08f 54bb 1a38 88bc
000001d0: f1e8 ce3b 5ab3 d73b 558f 07bb 5fe7 6ebc
000001e0: 6a22 113c 348c 123c 4476 0dbd c7df f93d
000001f0: 17b3 5ebd eaa2 c03b 38f2 813e 9835 5abc
00000200: a591 c3bc 9fb8 f23c 98d3 ce3c 1708 523c
00000210: 3142 1ebd 9c36 a43d 5d5d 5c3e c429 213c
00000220: f6d2 613d a16a f5bc 68c6 c73c 53be c9bc
00000230: e9e7 8d3d 3aae cd3c 499b a73d b014 0dbd
00000240: a918 a2bc f2df ddbd 0815 2f3d 4585 293d
00000250: 39af 3fbc 9d93 c0bd ddd5 b73b 82c0 d33b
00000260: a4fd c4bc 3b6c a73d 15fd 15bd a7db 8e3b
00000270: 2d61 303e b3d9 15bc 69d6 85bc faf7 a33c
00000280: 3204 903c 6bfd 0e3c 9832 d5bc d637 5d3d
00000290: 3adf 143e 25ca da3b e7f4 163d 35e8 a7bc
000002a0: c79c 873c 6fec 86bc 3b0a 3f3d b187 8a3c
000002b0: 60b9 603d 0388 bcbc 6a54 5bbc 73dc 95bd
000002c0: dd11 ef3c 9fe3 e83c 7b01 09bc 6c2c 82bd
000002d0: 1efd 573b 1d15 703b e53f 50bc 13ed 3b3d
000002e0: 4063 a5bc 0094 0b3b a5cc c33d 4e41 a8bb
000002f0: 8f4f 13bc 6b78 3f3c 54bd 233c fc4d a33b
00000300: bbbd 6abc 93d8 f23c 0d88 a73d 44d8 793b
00000310: ff96 aa3c de6b 33bc 5995 1e3c 7f10 0ebc
00000320: 7451 d43c cbf6 163c 503c 013d 1daf 55bc
00000330: bc25 03bc 88db 28bd 8849 823c 9f44 7b3c
00000340: a35b 9abb 8d7c 12bd 8902 b9b9 385e 0738
00000350: fe9e c3b7 39af 9c39 c5d4 7fb9 d728 7a39
00000360: e065 8bb9 d644 ae39 dac4 7ab8 1e7b bd39
00000370: ad3e b0b9 2bd1 1136 ec36 5a39 da18 9eb9
00000380: 52a7 9d39 d144 a2b9 63ba c4b9 f11f a9b9
00000390: f22a 55b9 88c3 2c39 046a d5b9 ce1c 7638
000003a0: 2180 d2b9 6492 9538 886a 93b9 b8c3 4139
000003b0: 1c88 ffb8 c8ab aab9 9a49 b0b9 3f8f e7b8
000003c0: 596e 3e3c 6e36 3d3c 0ea5 38bd 2d99 1f3e
000003d0: eb7d 8dbd 5237 083c 46c7 a63e 0eb7 8ebc
000003e0: ccfb f6bc 580f 1b3d c1ad 043d fff9 8c3c
000003f0: 404a 47bd f471 d03d 6fbb 8c3e 3594 4e3c
-0.0076709287 0.018566027 0.038241155 -0.026567636 0.113456964 -0.0040266165 -0.13637234 0.017291637
0.042219367 0.07493142 -0.008932457 -0.0059211613 0.04201554 -0.042220958 -0.21559303 -0.0060693733
-0.028436262 0.047886338 0.034905374 0.041569855 -0.014957534 -0.006733446 -0.047636114 0.082895055
0.041530944 0.23400494 -0.022801729 -0.015059039 0.028672777 0.12705511 0.0049719997 0.005386094
-0.020099701 0.070512526 -0.03152842 0.0039676223 0.14793587 -0.007848213 -0.013995967 0.017307792
0.014371018 0.00751697 -0.022290533 0.046580296 0.12460011 0.006091068 0.032029353 -0.017271891
0.01407919 -0.013847559 0.040021278 0.014931062 0.047602415 -0.020272365 -0.011663916 -0.06293572
0.025216319 0.024379563 -0.0069216555 -0.054530274 0.013446924 0.0138465315 -0.051685445 0.17970471
-0.079897545 0.008674107 0.37559915 -0.019702148 -0.03490611 0.043179404 0.037714396 0.019403923
-0.056603514 0.11770317 0.31644562 0.01418357 0.08096201 -0.044187833 0.035703026 -0.036076955
0.1023034 0.037211936 0.12046967 -0.050657045 -0.029505111 -0.15985003 0.06371037 0.061554655
-0.01723463 -0.13800257 0.0013082406 0.0013950204 -0.005690937 0.018330194 -0.007979884 0.0012656365
0.039308965 -0.0020655128 -0.0035741772 0.0047846003 0.0040456443 0.0022897338 -0.0056958185 0.012411848
0.032567963 0.0011299428 0.007907321 -0.0044129374 0.0036403711 -0.0037205669 0.010743573 0.0040299715
0.012495797 -0.0051651364 -0.003243439 -0.016628314 0.00631439 0.0065826597 -0.0020684798 -0.01458153
0.008858303 0.00894456 -0.034536615 0.12200885 -0.054370012 0.005878796 0.2538011 -0.013318442
-0.02387316 0.02962905 0.02524738 0.012819312 -0.038637344 0.080182284 0.2151999 0.009836618
0.05513283 -0.029958071 0.0243866 -0.024626886 0.06928999 0.025107492 0.08183915 -0.034443557
-0.01978715 -0.1083373 0.042744666 0.04138686 -0.011699491 -0.09403155 0.0056102113 0.0064621577
-0.024046727 0.0817494 -0.03661831 0.0043596807 0.1722457 -0.009146142 -0.01633759 0.020015705
0.017580125 0.008727412 -0.026025102 0.054008327 0.14538279 0.0066769295 0.03685465 -0.020496467
0.01655425 -0.016470162 0.046640616 0.016910406 0.054864287 -0.023014074 -0.013386825 -0.07317438
0.029183323 0.02842885 -0.008362169 -0.06356129 0.0032957266 0.0036633678 -0.012710546 0.04588039
-0.020188928 0.0021297932 0.09560517 -0.005134738 -0.008991136 0.011686425 0.00999387 0.0049836617
-0.014327462 0.029644286 0.081802465 0.003812329 0.020823954 -0.0109510105 0.009679162 -0.008670925
0.025917746 0.0092141135 0.03155166 -0.013042239 -0.008004602 -0.041224986 0.015904203 0.015336185
-0.004710631 -0.035763312 -0.0003528784 3.2274256e-05 -2.3319848e-05 0.0002988519 -0.00024397958 0.00023857072
-0.0002658805 0.00033239153 -5.9787977e-05 0.0003614062 -0.00033616033 2.1728436e-06 0.0002081056 -0.00030154624
0.00030070037 -0.0003095032 -0.00037522902 -0.0003225799 -0.00020329261 0.0001647604 -0.00040705514 5.8677797e-05
-0.00040149785 7.132141e-05 -0.00028117397 0.00018478825 -0.000121847 -0.00032552914 -0.00033624173 -0.0001104162
0.011622989 0.011548622 -0.045079283 0.15585776 -0.069087826 0.008313971 0.3257391 -0.017421272
-0.030149363 0.03785643 0.032392267 0.017209051 -0.048654795 0.10177985 0.2748675 0.0126085775

fc2.bias f4 [20]
00000000: 0ced f73d cb6c b43d c236 653e 41e3 bd3c
00000010: eb5c 1b3e 1ba6 d23d 7468 693d 3a9d c3b9
00000020: 7c6d 463e bd68 183d 101f ff3c 8b7e 9a38
00000030: 98bb 123d e27b e03b 845a a73e 8a69 453e
00000040: 37fb 133d e299 0d3c 612c b83c 2346 5c3c
0.1210576 0.08809813 0.2238417 0.023179652 0.15172164 0.10285588 0.05698438 -0.0003731044
0.19377702 0.03720926 0.031142741 7.366863e-05 0.035823435 0.0068507055 0.32686245 0.19278541
0.03612825 0.008642646 0.022482099 0.013444456

fc3.weight f4 [1, 20]
00000000: a9af e23e 3e11 87be 5983 2bbf cc7e 8ebd
00000010: 6cb7 e8be 3866 9dbe 4b9a 2fbe 447f 13b9
00000020: 3ae1 14bf e0c2 e5bd a9a5 bbbd 5731 f0b8
00000030: 727c dbbd a27a b2bc 08e4 983f e770 343f
00000040: f4a3 ddbd f01a 13bd 03dd aa3d b96e 25bd
0.44274643 -0.26380342 -0.66997296 -0.06957778 -0.4545244 -0.3074205 -0.17148702 -0.00014066423
-0.5815617 -0.1121881 -0.091624565 -0.00011453282 -0.107170954 -0.021786992 1.194459 0.70484775
-0.10822287 -0.03591436 0.08342936 -0.040388796
